app/src/main/assets/nlp.tflite (tflite, 642920 bytes, 4 tensors)

sequential/embedding/embedding_lookup f4 [10000, 16]
00000000: 189f f43d dfbb 533e f3ed 3ebe 1e92 283e
00000010: 3de1 8fbe 2054 b2bd 2928 d03d 455e 083e
00000020: 46fa 9c3e 9769 37be 77b8 e1bd f1b0 62be
00000030: cdd7 56be 2a11 953d 0ecb 363e ac15 033e
00000040: 6765 0c3d 8d48 233d 4085 72bc d05d 8abb
00000050: 2adb 3abd 867d 12bd 4071 a4bc 98d7 2d3c
00000060: 683f e03b b73f 32bd 007b c2bb e727 0b3d
00000070: 03d4 443d 000e 0b3b 8cef 64bc 98cf 5fbc
00000080: f9b9 82be 9fc5 5abe 05cf 2c3e ce37 7dbe
00000090: 64b1 83be 03db 5b3e f760 98be d04d 98be
000000a0: dd4d 3b3e 1794 713e 96aa 6c3e 1fdf e2bc
000000b0: 20b5 713e 55cc 933e 53d8 5bbe 3c30 5cbe
000000c0: ef30 b03d d084 193e a9a8 2cbe 2557 2b3e
000000d0: eaa4 68be 7c28 17be 4ca7 2a3e fb2f 0e3e
000000e0: 8ad2 883e a2f4 f3bd 21e2 87bd b9d0 2ebe
000000f0: ab1d 16be bcd8 81bd 88db f73d a5f9 cb3d
00000100: 7acb 80be 8d98 86be 4bb8 6f3e 3261 26be
00000110: 31f0 90be bcba 653e 2c4f 91be f65a 72be
00000120: 0312 873e 77cd 373e 9147 343e d8be 0dbe
00000130: 7555 243e 89f7 783e caba 2fbe fb1d 7abe
00000140: b982 983d 0821 c93d 3600 1ebe 5bc8 413d
00000150: cbaf 78be 6352 d8bc ffbc 5a3b 0d30 c03d
00000160: 0763 763e a706 8cbd f700 89bd 9231 61be
00000170: c35a 27be dbb6 b83d dcc3 0e3e 1d3d a13d
00000180: 24a8 cb3d 7487 fd3d 504b 16be 73b6 a63d
00000190: 7dce 64be 4aa1 d8bd 8a21 8c3d 00a3 013e
000001a0: 2194 5a3e a864 d9bd 76cd d8bd 1ea4 2abe
000001b0: df84 51be b2aa d73c c910 a93d d052 f03d
000001c0: db37 8fbe 8d5b 57be 366e 053e 0960 16be
000001d0: 9bdd 5fbe 0f2f 7c3e f118 4fbe 6bd1 83be
000001e0: ddd2 5b3e d325 613e d1f1 3a3e 9b65 83be
000001f0: 7e33 fa3d 3f41 3a3e 2b0b 4ebe 7602 78be
00000200: c6bf 793e 9a77 603e d66c 20be 6084 6c3e
00000210: 943d 063e 0ffa 86be 4ed4 803e 72fe a03e
00000220: 362c 893e 844c 7abe 533d 26be 7d12 81be
00000230: 420a 4dbe cae3 48be 32d9 493e 9867 403e
00000240: a26f 53be 3923 79be fcf3 603e 2c89 63be
00000250: ad22 89be 953a 863e 8d6a 92be 1dec 91be
00000260: 296e 843e f4f9 623e b4f7 703e 0aa7 66be
00000270: 290e 103e 18e6 563e cca8 6cbe 8cd4 6cbe
00000280: 2432 38be 92f8 14be dd5b 093e 85ff dfbd
00000290: 3f6e 8abe caf9 663e af58 27be 59c2 40be
000002a0: 3159 833e ab94 303e cce4 4b3e fc11 4cbe
000002b0: 2ac6 fc3d f693 473e 39b4 13be c8a1 56be
000002c0: 0bd3 0cbd c112 86bc 18df b7bc 8b66 82bc
000002d0: c68f 87be aad0 0e3e 9e01 b8bd cdbb 47bc
000002e0: 2631 493e c1c0 dcbc 996e fe3d 1caf 2fbe
000002f0: 4548 a1bd b943 c03d de15 80bd 1d96 91bd
00000300: 7c27 08be dad9 e6bd adc2 0e3e e312 e1bd
00000310: 7b75 5ebe c864 683e 5c3f 11be 0311 66be
00000320: 77c7 593e d661 fd3d b4e7 0b3e 0393 2ebe
00000330: 140a b03d 456a 1e3e beed 0abe 631e 0abe
00000340: 63ee c0bd fca8 eebc 79ac 64bd c2e4 163d
00000350: eba3 62be edd6 953d 5360 98bd 9a0c 13bd
00000360: 98b8 2f3e e766 313c b4eb 1c3c 33a0 50be
00000370: a9e4 a7bd 2e29 233e ddf4 75bc d057 78bd
00000380: 0d48 653e 3fc8 843e 6136 27be b156 1f3e
00000390: 43ef 07be 4f08 5ebe b997 883e 9aec 893e
000003a0: 7ea6 523e 630d 1bbe 52fd 63be 9cd0 79be
000003b0: 9641 4fbe 3dfa 5abe 3e59 503e f06e 593e
000003c0: 3eed 7dbe 9f07 7dbe ed38 7a3e 0463 82be
000003d0: 1371 68be 69cb 4e3e 0975 8dbe 6621 89be
000003e0: f909 313d 4b16 6d3e eb4c 7d3e 8a90 eb3d
000003f0: 0a25 473e 13df 703e a483 91be 2a9a 5bbe
0.11944407 0.20677136 -0.18645458 0.1646199 -0.2810153 -0.08707452 0.1016391 0.13317211
0.30659693 -0.17911373 -0.11021512 -0.2213781 -0.20980759 0.072786644 0.17850897 0.12801236
0.034276392 0.03986411 -0.014802277 -0.004222609 -0.045619167 -0.03576424 -0.020073533 0.010610484
0.006843496 -0.043517794 -0.005935073 0.0339736 0.048053753 0.0021218061 -0.013973128 -0.013660334
-0.2553251 -0.21364449 0.16875847 -0.24728319 -0.25721276 0.21470265 -0.29761478 -0.29746866
0.18291421 0.23591648 0.23111948 -0.027694283 0.2360425 0.2886683 -0.2146924 -0.21502775
0.08603083 0.1499207 -0.16861214 0.16732462 -0.2271916 -0.14761537 0.16665381 0.1388549
0.2672313 -0.119118944 -0.066349275 -0.17071809 -0.14659755 -0.06340167 0.12102419 0.09959725
-0.2515524 -0.26288262 0.23410146 -0.16248015 -0.28308252 0.22434515 -0.28380716 -0.23667511
0.2638093 0.17949472 0.17605425 -0.13842332 0.16048224 0.24313177 -0.17161098 -0.24425499
0.07446808 0.09820753 -0.15429768 0.047310214 -0.2428581 -0.026406473 0.003337681 0.09384165
0.24061213 -0.06837206 -0.06689637 -0.21991566 -0.16343217 0.09019252 0.13941902 0.078729846
0.0994418 0.12379351 -0.14677167 0.08140268 -0.22344394 -0.105776384 0.068423346 0.12659836
0.21345569 -0.10614902 -0.105860636 -0.16664168 -0.20460843 0.026326511 0.08255155 0.11734545
-0.27972302 -0.21031018 0.13030323 -0.14685072 -0.2186188 0.24627326 -0.20224358 -0.2574571
0.21467157 0.21987085 0.18256308 -0.25663456 0.122168526 0.18188952 -0.20121448 -0.24219689
0.24389562 0.21920624 -0.15666518 0.23097372 0.13109428 -0.26362655 0.25161976 0.31444126
0.26791543 -0.24443251 -0.16234331 -0.25209418 -0.20023444 -0.19618145 0.1971176 0.18789518
-0.20648053 -0.24329843 0.21968073 -0.22220296 -0.26784268 0.2621657 -0.28596917 -0.28500453
0.25865296 0.22165662 0.23531991 -0.22524658 0.14067902 0.20986211 -0.23111266 -0.23127955
-0.17987877 -0.14547947 0.1341395 -0.10937408 -0.27037236 0.22556224 -0.16342424 -0.18824138
0.25653985 0.17244212 0.19911498 -0.19928735 0.12342484 0.19490036 -0.14424218 -0.20960152
-0.034380954 -0.016366364 -0.022445247 -0.015918037 -0.26476878 0.13946787 -0.089846835 -0.012190771
0.19647655 -0.026947381 0.124234386 -0.17156643 -0.078751124 0.09387917 -0.06254171 -0.0710871
-0.13296312 -0.11272021 0.1394145 -0.109899305 -0.21724503 0.22694695 -0.14184326 -0.22467427
0.21267496 0.12372176 0.13662606 -0.17048268 0.08595672 0.15470226 -0.13567254 -0.13488154
-0.09420469 -0.029133312 -0.055828545 0.036839254 -0.22132842 0.073163845 -0.074402474 -0.03590069
0.1716026 0.0108277565 0.00957768 -0.20373611 -0.0819791 0.15933678 -0.015011993 -0.06063062
0.22390766 0.25934026 -0.16329338 0.15560414 -0.13274865 -0.21682857 0.26678255 0.26938325
0.20571324 -0.15141825 -0.22264603 -0.24395984 -0.20239863 -0.21384521 0.20346543 0.21233726
-0.24797532 -0.24709938 0.24435778 -0.25466168 -0.22699384 0.20194782 -0.27628353 -0.26783293
0.0432224 0.23153035 0.24736373 0.11502178 0.19447723 0.23522596 -0.28420746 -0.21445528

sequential/dense/BiasAdd/ReadVariableOp f4 [6]
00000000: 72bd 163e 6a5d 763e 66d1 ff3d 2009 583e
00000010: bca7 003e 94da 5d3e
0.14720705 0.24059072 0.124911115 0.21097231 0.12563986 0.21665412

sequential/dense/MatMul f4 [6, 16]
00000000: 4080 a33d 0914 483e 1223 bebe 65b9 52bd
00000010: 0d3f dfbe 88ac 563d f283 1e3f 3639 0fbd
00000020: 8a32 7f3d ccce d7be 0020 05be 4f47 453e
00000030: 1c81 37bf 9f8a 31bf fa1b 163f 258b c03e
00000040: 0391 ca3d 79fe e8bd e9d4 3c3c 151a fbbc
00000050: 8b38 38bf ad48 2b3f ad94 2cbf 19f0 81be
00000060: e4d7 253e cdd8 313f 649f 753e 4ea3 e6be
00000070: a001 bf3e fe38 9ebc 0dad 29bf 2bc1 b9be
00000080: cbbc 3d3f a9e9 aa3e b192 32bf f529 273f
00000090: 0237 0bbf d4b3 2fbf 9d8c 89be 2b1c 61bc
000000a0: d526 b3bd 25ff 26bf 7ef5 16bf ccbd 37bf
000000b0: ec12 20bf bfea 8cbe b602 ae3e 1abe e83e
000000c0: c7ee b83c edd5 37bf fe97 003f c964 eebe
000000d0: d510 43bf f6c5 f23e f7eb 2dbf 2d4a 42be
000000e0: 3b6d fb3e 9ee3 0e3f 1cda 363f ac96 04bf
000000f0: 5748 713e 751c 073f 9f34 223e 35ae b1bd
00000100: 78a2 52bd 5ed2 a83e d7fd 07bf 90ff 003f
00000110: fefe 4e3e ea36 aabd d302 1d3f 37a5 313f
00000120: 6f2a 2f3f 93ce a9be 4ec1 cdbe 3342 e8be
00000130: 1f5c 24bf 2b0c 06bd fdd9 e03e a265 883e
00000140: 9796 46bf ec60 5c3e 31d2 b73e 41ab f4be
00000150: 7996 2cbf 9d7d 2d3e f3d7 a83d d846 c5be
00000160: 1fa6 ec3d 7ee2 7abd c46b 3d3f e086 b6be
00000170: 8d66 e9bc c112 293f 3712 37bf a438 31bf
0.07983446 0.19538893 -0.37136132 -0.051446337 -0.4360279 0.052410632 0.6192008 -0.03496667
0.062304057 -0.4214996 -0.13000488 0.19265483 -0.7168138 -0.69352144 0.5863644 0.3760616
0.0989094 -0.11376662 0.011525371 -0.030652085 -0.7196128 0.6690777 -0.6741436 -0.25378492
0.16195637 0.69471437 0.23986584 -0.45046467 0.37305927 -0.019314285 -0.6627968 -0.36280188
0.741162 0.33381394 -0.69755083 0.65298396 -0.5438081 -0.6863377 -0.26865092 -0.013739626
-0.08747641 -0.6523307 -0.5896834 -0.7177398 -0.6252887 -0.27522847 0.33986443 0.45457536
0.022574795 -0.718108 0.5023192 -0.46561268 -0.7619756 0.47416657 -0.6793818 -0.18973608
0.49106774 0.55816066 0.7142656 -0.5179241 0.23562752 0.52777797 0.15840386 -0.086758055
-0.051424474 0.32972997 -0.53121704 0.5038996 0.2021446 -0.08311255 0.61332434 0.6939272
0.68424124 -0.33165416 -0.40186542 -0.45363006 -0.64203066 -0.032726448 0.43916312 0.2664004
-0.7757353 0.21521348 0.3590255 -0.47786906 -0.67417103 0.16942449 0.08244314 -0.38530612
0.115551226 -0.061251156 0.7399256 -0.35649776 -0.028491283 0.6604424 -0.7151217 -0.6922705

sequential/dense_1/MatMul f4 [1, 6]
00000000: 3975 07bf 65a1 e03e 2241 6fbf 7b1e 3a3f
00000010: b7d4 66bf 0ea5 283f
-0.5291324 0.43873134 -0.9345876 0.7270276 -0.9016833 0.65876853
