app/src/main/assets/nlp.tflite (tflite, 642920 bytes, 4 tensors)

sequential/embedding/embedding_lookup f4 [10000, 16]
0	0x3e3a0b9d	0.18168493
1	0xbe1fc75b	-0.15603392
2	0xbe2c2e29	-0.16814484
3	0x3e5bf366	0.21479568
4	0xbe12d10c	-0.14337558
5	0x3cc0674a	0.023486752
6	0x3e322349	0.17396273
7	0xbd897190	-0.067111135
8	0xbe25635d	-0.16151185
9	0xbdcb5ce2	-0.09929825
10	0x3dfe1a59	0.12407369
11	0x3dff741a	0.124733165
12	0xbe06eef6	-0.13177094
13	0xbe618b71	-0.22025849
14	0x3e4e5b7c	0.20152086
15	0xbe1dc2a0	-0.15406275
16	0x3c9eeac6	0.019399058
17	0xbd11c146	-0.03558471
18	0x3cd757b2	0.026286934
19	0x3cd86326	0.026414465
20	0xbc790e34	-0.01520114
21	0xbd05fccd	-0.032711793
22	0x3cd3587a	0.025799025
23	0x3c9dc1da	0.019257475
24	0xbc47a0b4	-0.012184311
25	0xbd153786	-0.036429904
26	0x3d0a6847	0.033790853
27	0x3c611c34	0.013739634
28	0x3ce71d46	0.0282122
29	0xbd25a2cd	-0.040438462
30	0xbcb0d56d	-0.021586144
31	0xbc161a28	-0.00916151
32	0xbe0fc4ee	-0.14039966
33	0x3e869c31	0.2629104
34	0x3e5fc8e2	0.21853974
35	0xbe59c332	-0.21265867
36	0x3e6f0c37	0.23344503
37	0xbe8ae5dc	-0.27128494
38	0xbe91f80b	-0.28509554
39	0x3e69aaa0	0.22818995
40	0x3e6ad170	0.22931457
41	0x3e5d3fe1	0.21606399
42	0xbe80af41	-0.25133708
43	0xbe40c27e	-0.18824193
44	0x3e899898	0.26874232
45	0xbda1e588	-0.07905108
46	0xbdc506fb	-0.09620472
47	0x3e4b61c9	0.19861521
48	0xbe1b6792	-0.15176228
49	0x3e61e5c0	0.22060299
50	0x3e7b26c3	0.24526505
51	0xbe74c824	-0.23904473
52	0x3e867ebc	0.26268566
53	0xbe79ac1f	-0.24382065
54	0xbe800877	-0.25006458
55	0x3e80a932	0.25129086
56	0x3e1f2a2b	0.1554343
57	0x3e7264df	0.23671292
58	0xbe799c81	-0.24376108
59	0xbe43c077	-0.19116388
60	0x3e82d9f0	0.25556898
61	0xbd45e387	-0.04831269
62	0xbda0751b	-0.07834836
63	0x3e65c851	0.22439696
64	0x3dece977	0.115679674
65	0xbd67f336	-0.05662843
66	0xbe15a9af	-0.1461551
67	0x3df3aca6	0.118981645
68	0xbe28d54c	-0.16487616
69	0xbda1a71b	-0.07893201
70	0x3e2f743a	0.1713418
71	0x3d69f112	0.05711467
72	0xbe09d65b	-0.13460676
73	0xbdc26a29	-0.09492905
74	0x3d8c8b73	0.06862535
75	0x3df1c7aa	0.11805661
76	0xbcec6283	-0.028855568
77	0xbe766f25	-0.24065836
78	0x3e354e40	0.17705631
79	0xbd9a7780	-0.07542324
80	0x3e463768	0.19357073
81	0xbbdcaba8	-0.00673433
82	0xbe13e2ec	-0.14442033
83	0x3e0ae34a	0.13563266
84	0xbe0907ef	-0.13381933
85	0xbd6f058f	-0.05835491
86	0x3debe0db	0.11517497
87	0x3e092f90	0.1339705
88	0xbdf4c278	-0.119511545
89	0xbd84afc7	-0.06478839
90	0x3dd4d125	0.10391454
91	0x3dfab4da	0.12241526
92	0xbc841aab	-0.016125998
93	0xbe81ee90	-0.2537732
94	0x3e49c439	0.19703759
95	0xbd8539b1	-0.065051444
96	0x3e0e0440	0.13868809
97	0xbdb32ac3	-0.087483905
98	0xbdb3f61a	-0.087871745
99	0x3e019491	0.1265433
100	0xbe2f1ff4	-0.17102033
101	0xbd8e7111	-0.069551595
102	0x3e10c97c	0.1413936
103	0x3d954f3c	0.072905034
104	0xbdebe242	-0.11517765
105	0xbd84564d	-0.06461773
106	0x3d43845a	0.047733642
107	0x3dca57f7	0.09880059
108	0xbd0b3cfb	-0.033993702
109	0xbe73d665	-0.23812254
110	0x3e51f9e2	0.20505479
111	0xbdbf200b	-0.093322836
112	0xbe2dc384	-0.16969115
113	0x3e8e7b0b	0.2782825
114	0x3e38182b	0.1797797
115	0xbe2dcea0	-0.16973352
116	0x3e7fc4a3	0.24977355
117	0xbe8241fb	-0.25440964
118	0xbe6aaff1	-0.22918679
119	0x3e7908b3	0.24319725
120	0x3e01c24d	0.12671776
121	0x3e3dd159	0.18536891
122	0xbe2c0b7b	-0.16801254
123	0xbe3cd89c	-0.18442005
124	0x3e5ade38	0.21373832
125	0xbe3add65	-0.18248518
126	0x3c717a16	0.01473858
127	0x3e4ef11b	0.20209162
128	0x3e26a60d	0.16274281
129	0xbe24b23b	-0.16083615
130	0xbe2e6775	-0.17031653
131	0x3e899d07	0.26877615
132	0xbe3041cf	-0.17212604
133	0x3e5f11b1	0.21784092
134	0x3e7421a4	0.23840958
135	0xbe4bcdcd	-0.19902726
136	0xbe2fe2d8	-0.17176378
137	0xbe444b2f	-0.19169305
138	0x3e2b53f2	0.16731241
139	0x3e621b7a	0.22080794
140	0xbe6bbd07	-0.23021327
141	0xbe1c82f2	-0.15284327
142	0x3e3fbd2c	0.18724507
143	0xbe566c21	-0.20939685
144	0xbe21c66d	-0.1579835
145	0x3e423435	0.18965228
146	0x3e07dcbb	0.13267796
147	0xbe127497	-0.14302288
148	0x3e81259d	0.2522401
149	0xbe6b2433	-0.22963028
150	0xbe4fa123	-0.20276313
151	0x3e5cb26c	0.21552438
152	0x3de7890c	0.113054365
153	0x3e1f409c	0.1555199
154	0xbe6b2448	-0.22963059
155	0xbe484c90	-0.19560456
156	0x3e1f085d	0.15530534
157	0xbde96eef	-0.11398112
158	0x3da9b593	0.08286586
159	0x3e5298b9	0.20566072
160	0x3c6fd771	0.014638768
161	0x3e341182	0.17584804
162	0x3d2fa456	0.042881332
163	0xbcb2f84c	-0.021846913
164	0xbc8605c8	-0.016360179
165	0xbe634f52	-0.22198227
166	0xbdcef1b0	-0.10104692
167	0x3e85e0a0	0.26147938
168	0x3d733714	0.0593787
169	0x3e3b5193	0.18292837
170	0xbe175390	-0.1477797
171	0xbd95ea35	-0.07320062
172	0x3df25621	0.11832834
173	0xbe5b3210	-0.21405816
174	0x3e78c1e9	0.24292721
175	0x3da2fa10	0.07957852
176	0x3e35ce3e	0.17754456
177	0x3d8f2f55	0.0699145
178	0xbda37a8e	-0.0798236
179	0x3dc2ec7b	0.09517761
180	0xbd9c1264	-0.07620695
181	0xbe605552	-0.21907547
182	0xba1f8ae2	-0.0006086064
183	0x3e489803	0.19589238
184	0xbdea2f80	-0.11434841
185	0x3de6c748	0.11268479
186	0x3ca13c8f	0.019682197
187	0x3d62ce91	0.05537278
188	0x3dc29187	0.095004134
189	0xbe4752b0	-0.19465137
190	0x3e61c85b	0.22049086
191	0xbd3631a5	-0.04448094
192	0x3c85bc79	0.016325222
193	0x3e39455c	0.18092865
194	0x3dc6515c	0.09683487
195	0xbd9a4e17	-0.07534426
196	0x3d125d4d	0.03573351
197	0xbe77d236	-0.24201283
198	0xbdbdc51e	-0.09266113
199	0x3e51e874	0.2049883
200	0x3ce6427d	0.028107876
201	0x3e426920	0.18985415
202	0xbe2ac09e	-0.1667504
203	0xbdde1a13	-0.10844817
204	0x3e0f0b37	0.13969122
205	0xbe44a645	-0.19204052
206	0x3e579341	0.21052267
207	0x3d5997e2	0.053123362
208	0x3d2ea04b	0.042633336
209	0x3de25a48	0.11052376
210	0x3c1b4889	0.009477743
211	0xbdbf140b	-0.09329995
212	0xbc776cd7	-0.015101633
213	0xbe259ff8	-0.16174304
214	0xbd564a02	-0.052316673
215	0x3e22eff3	0.15911846
216	0xbcfe78eb	-0.031063518
217	0x3db03744	0.08604291
218	0xbc95a4f1	-0.018267127
219	0xbd14ad0b	-0.03629784
220	0x3d7d54f3	0.061848592
221	0xbe049422	-0.12947133
222	0x3df56f25	0.1198409
223	0xbc35d733	-0.011098671
224	0x3dfdc3d3	0.12390866
225	0xbe577a38	-0.21042717
226	0xbe5620c1	-0.20910932
227	0x3e7b9eeb	0.24572341
228	0xbe5596ea	-0.2085835
229	0x3e83518d	0.25648156
230	0x3e2476ae	0.16060898
231	0xbe5b2643	-0.21401314
232	0xbe317ba9	-0.17332329
233	0xbe69be6c	-0.22826546
234	0x3e4c682a	0.1996161
235	0x3e049e63	0.12951045
236	0xbe5ca933	-0.2154892
237	0xbe32aa22	-0.17447713
238	0x3e0d004e	0.13769647
239	0xbe32a349	-0.17445101
240	0x3e0c15fb	0.1368026
241	0x3d6ac9b3	0.05732126
242	0xbd3484bf	-0.04407191
243	0x3da5d0e7	0.080964856
244	0xbe009080	-0.12555122
245	0xbe235187	-0.15949069
246	0x3caabe33	0.020842647
247	0x3dbf2e62	0.09335019
248	0xbdd634fc	-0.10459325
249	0x3d0e084c	0.03467588
250	0x3b8a164e	0.0042140847
251	0x3cc43069	0.023948865
252	0x3da3562a	0.07975419
253	0xbe681088	-0.22662556
254	0x3e3112c5	0.17292316
255	0x3c0fe2fb	0.008782144

sequential/dense/BiasAdd/ReadVariableOp f4 [6]
0	0x3e1cb512	0.15303448
1	0x3e249d92	0.16075733
2	0x3e181f1f	0.14855622
3	0x3e64bd4a	0.22337833
4	0x3e7962f0	0.24354148
5	0x3e20ba0e	0.15695974

sequential/dense/MatMul f4 [6, 16]
0	0x3f36c445	0.71393234
1	0xbec99326	-0.39370078
2	0xbed8c06c	-0.42334306
3	0x3e60ba7b	0.21946137
4	0xbe67c732	-0.2263458
5	0x3ed027cc	0.40655363
6	0x3effc821	0.49957374
7	0x3dc7918e	0.09744559
8	0xbf0f8b4b	-0.5607192
9	0xbc93d100	-0.018043995
10	0xbe2f72be	-0.17133614
11	0x3f0c4f1e	0.54808223
12	0x3e196cf4	0.14982969
13	0x3dd2bdfa	0.102901414
14	0x3ea988e3	0.3311225
15	0xbf3a0274	-0.72659993
16	0x3e670897	0.2256187
17	0xbeb945ce	-0.3618607
18	0xbf2cd6cd	-0.6751526
19	0xbe8bc914	-0.27301848
20	0x3d80ea0f	0.06294643
21	0x3dc1237b	0.094305955
22	0x3f0433f0	0.5164175
23	0xbf12353d	-0.57112485
24	0xbec764de	-0.38944143
25	0xbf15b84b	-0.58484334
26	0x3f23c1db	0.63967675
27	0x3a3c886c	0.00071919593
28	0xbf19c91f	-0.6007251
29	0xbf3bc8f3	-0.733535
30	0x3e8853da	0.26626474
31	0x3e0a5c19	0.13511695
32	0x3eb1464d	0.34623948
33	0xbdf6a719	-0.1204359
34	0xbee02640	-0.43779182
35	0x3f2db2fb	0.6785123
36	0xbf2f9b94	-0.6859677
37	0x3e61f1f5	0.22064956
38	0xbdd8b001	-0.10580445
39	0xbe5abe1a	-0.2136158
40	0xbf267feb	-0.6503894
41	0xbeb4f936	-0.35346383
42	0x3f38191e	0.71913326
43	0x3f02f117	0.51149124
44	0xbee6113e	-0.4493503
45	0xbf1cb5b8	-0.6121478
46	0x3f165b23	0.58732814
47	0xbf2cfbe9	-0.67571884
48	0xbddd05be	-0.10792111
49	0x3e91da82	0.2848702
50	0x3e054e07	0.13018046
51	0xbef7898b	-0.48347124
52	0x3ed026c9	0.4065459
53	0xbec34e79	-0.38145807
54	0xbd25c980	-0.04047537
55	0x3f233a9f	0.63761324
56	0x3e618147	0.22021972
57	0x3f2992b5	0.6623948
58	0xbefd0c53	-0.49423465
59	0xbecc80b1	-0.39941934
60	0x3f28d9d1	0.6595736
61	0xbf1da215	-0.6157544
62	0x3e7cad46	0.24675474
63	0x3f2627fb	0.64904755
64	0xbec9ba8f	-0.39400145
65	0x3f23eae4	0.6403029
66	0x3f451467	0.76984257
67	0xbdb7b9fe	-0.08971022
68	0xbd3e56f3	-0.04646964
69	0xbf45ce48	-0.77267885
70	0xbed4c925	-0.4155971
71	0xbd224ad2	-0.039622135
72	0x3efda14b	0.4953712
73	0x3e90ffee	0.2832026
74	0xbf16628f	-0.5874414
75	0xbf1d0a61	-0.6134396
76	0x3e9fc926	0.31208152
77	0xbe95e288	-0.29274392
78	0x3efbc820	0.4917612
79	0xbcc085cc	-0.0235013
80	0x3e11b495	0.14229043
81	0x3f1a1b23	0.6019766
82	0x3ec254ed	0.37955418
83	0x3d40aebe	0.047041647
84	0x3e18ef20	0.14934969
85	0xbf24a223	-0.643099
86	0xbeda492c	-0.4263395
87	0x3f291822	0.6605245
88	0x3eb251fc	0.34828174
89	0x3e3e967b	0.18612091
90	0xbe907c3d	-0.28219786
91	0x3b256adf	0.0025240702
92	0x3d95b39f	0.07309651
93	0xbed5ae0f	-0.4173436
94	0x3e5bc600	0.2146225
95	0x3d845aa1	0.064625986

sequential/dense_1/MatMul f4 [1, 6]
0	0xbf888045	-1.0664145
1	0xbf67b662	-0.9051267
2	0xbf8f51cf	-1.1196841
3	0x3f1e0317	0.61723465
4	0x3ebe8109	0.3720782
5	0x3f06bddd	0.5263346
